toa_model.pth (torch, 199197 bytes, 48 tensors)

fc1.weight f4 [128, 28]
00000000: b9db 593e bc4a 5aba 0c61 013d 4339 853e
00000010: f620 493e 7d6a 713e 3c74 113e 0e5c 7dbe
00000020: 138c 00bd f450 9e3e 0293 503e c3b7 943e
00000030: f306 52be 78d4 273e abec 243e ad07 203d
00000040: 78a2 ad3e 3f5e abbd 7559 273c e1f4 b23d
00000050: 9435 75be 401f da3d def4 73bd 080b d4bd
00000060: 4b25 a43d 1f52 cdbd 098e 0e3e a593 b8bd
00000070: c308 9b3c 52f7 3c3d b793 7ebd 513b e23d
00000080: 1aa0 debd 23c9 66bd 1c13 0dbe 969c c4bc
00000090: da9f 943e 0a2f d8bd eb67 dabd ab75 1fbd
000000a0: 96fb 123d 23ed d33e 2404 5b3e 164c c7bd
000000b0: bcda a8bc 2ed7 f3bd 91c0 ad3e 2d2c 9e3e
000000c0: 0d8e 6cbd 7e49 a2bd 1fa7 d3bd 7cc8 cdbe
000000d0: 264e f33d 9de2 26bd d1b7 96bd 5c5b e0bc
000000e0: fc65 6fbd b8c0 583d 1b0a 903c 90f4 c9bd
000000f0: 61e7 97be ec85 8a3e 3a77 223e c4c8 c0bd
00000100: f404 c8bd 79cf 7e3e 92cc 023e e4a0 6a3e
00000110: c2dc 3abd 2bd4 ecbc b682 9b3e 1ff0 d9bd
00000120: 7ef0 2b3e 09bc 7abd 3cb2 45be 6ed6 ac3e
00000130: 60b8 9fbd dea6 b3bd f719 febd ab7c 01bd
00000140: 33a8 28be 4ec4 a2be c5c1 51be 72bc 48be
00000150: b890 093d 047e 91bd 48ae 8fbd 0122 bdbe
00000160: 95f1 c1bd 94c9 acbd 90c5 7dbe d039 28be
00000170: 3d4c 83bd 3bc0 de3e b661 11be 3018 a7bd
00000180: 51a1 14bd 15bb 553e a6f9 a93e cac9 743e
00000190: f44a 233c 6140 45be 5366 5fbd 3dfc dabd
000001a0: 2291 1d3e b203 183e e299 97bd 9c7a 18be
000001b0: 8b03 ef3d 1655 823e 269a bb3e 999d 283d
000001c0: ec1e 7e3c 614d 76be 97c8 11bd aa49 0f3f
000001d0: 9d57 033f 2923 963c 91b7 85bc cfb1 783d
000001e0: 63a7 c03e 73c7 703e 4e9e 623e 8259 fe3d
000001f0: a36c b03d ccdf 013e 1810 e83b e8ab e43c
00000200: 477a c63d 3390 38bc 0067 0fbe ec40 47be
00000210: 84eb 3fbe de80 e33b 8abc 49bc 0bf9 3fbe
00000220: 1bee 91be 7fd4 85be 7ffe 1d3e 3e59 c33d
00000230: 923b ae3b 6d4c 91bb 581c 21be 9a70 c63e
00000240: 421c 493e 5cec 8ebd c2e3 1ebe 47ae aebd
00000250: 57d4 db3e c415 893d a037 00bd c6cc 1ebe
00000260: 8701 44bd b433 b33e 1d05 183a 3524 8c3d
00000270: 093a b5bd dc13 2cbe f4cf 9f3e 7e43 213e
00000280: 9cdb 253d ffd8 e4bd 66c6 19be 99c8 c83e
00000290: ba38 433e 3462 873e 1f76 b53c ed7c 88bd
000002a0: f8e7 b7bb cb97 b5bc d0e3 f43d 6000 b0be
000002b0: c67d 5f3e 34eb cc3e 602f 473e a1c4 483d
000002c0: 95ef 293e 5b06 c6bc 8e12 683e 8eec 073e
000002d0: 4eac 68bd 880b 1d3d c894 243e 8dcf bc3e
000002e0: 3d72 0f3e 9e93 cbbd 36c5 d6bd 6ce5 8bbe
000002f0: 20bd 0f3e accc 1bbe 501a 8fbe 83e7 c1be
00000300: a88a 45be 95f8 b6bd 436b 9abe f475 a2be
00000310: 7381 08bd ddf1 68bd 2a75 d23c 50bf 6c3e
00000320: ca10 ccbd f68d 403d 06ee 3b3e b184 073d
00000330: 5cf9 0b3f 6afb 913e d236 953c a704 f73c
00000340: 2170 81bd ab44 cc3e fca4 453e e669 1f3c
00000350: 0b31 443e 295c 97bd c602 4d3e 5b79 76bd
00000360: 0572 1b3d 2c19 9dbd 8884 bdbd e71a 32bf
00000370: eab8 c6bd e070 cabd edbd 2fbe 32f3 5abe
00000380: ca37 213e 8090 acbd c1d5 173d 1349 813e
00000390: e105 e53d 291c 143d bdd0 00be ece0 88be
000003a0: f757 613e ed29 3ebd 34a4 88bd e19c ec3b
000003b0: 50e2 9dbe b77c bd3e 4ffe cd3e 2e3c 463e
000003c0: 4df1 bebd ccbe a8be 8437 853e 0b9d 2f3e
000003d0: 50d5 fa3c a239 85bd 1680 87be 39b5 e93d
000003e0: c992 89bc 7c8d eabd 017e 043d d711 23be
000003f0: c793 563b 2c3e 9ebe 2ae2 a23c 1bb0 e63e
0.21275224 -0.00083271763 0.03158669 0.2602025 0.1964148 0.23575778 0.14204496 -0.24742147
-0.031383585 0.30921137 0.20368579 0.2904645 -0.20510463 0.16389644 0.16105907 0.03906982
0.33913016 -0.083675854 0.010214199 0.08738113 -0.2394622 0.10650492 -0.059559695 -0.103536665
0.080149256 -0.10025429 0.1392137 -0.09012536 0.018925076 0.0461343 -0.06215259 0.1104647
-0.10870381 -0.056344163 -0.13776821 -0.024000447 0.29028207 -0.10555847 -0.10664352 -0.038930576
0.035884462 0.41391858 0.21388298 -0.09731309 -0.020612113 -0.11906277 0.3393598 0.30893078
-0.057752658 -0.07924174 -0.1033461 -0.4019202 0.1188014 -0.04074346 -0.07359279 -0.027387314
-0.05844687 0.052918166 0.017582944 -0.098611 -0.29668716 0.270553 0.15865794 -0.09413293
-0.0976657 0.24883832 0.1277335 0.22912937 -0.045620687 -0.028909763 0.30373162 -0.106415026
0.16790959 -0.06121448 -0.19306272 0.33757347 -0.077988386 -0.08772062 -0.12407296 -0.031613033
-0.16470413 -0.31790394 -0.20484073 -0.19603136 0.03358528 -0.07104114 -0.070156634 -0.36940005
-0.09469906 -0.084368855 -0.24782395 -0.16428304 -0.06411026 0.43506035 -0.1419743 -0.0815891
-0.036286656 0.20872147 0.3319828 0.23905101 0.009966601 -0.1926284 -0.054540943 -0.10692642
0.15387395 0.1484516 -0.07402398 -0.14890522 0.11670598 0.2545554 0.36641043 0.04116592
0.015510302 -0.24052955 -0.035591688 0.5597178 0.5130556 0.018327313 -0.016322883 0.060716446
0.37627706 0.23513584 0.22130701 0.12419416 0.08614471 0.12683028 0.0070819966 0.027914003
0.09691291 -0.0112648485 -0.14004135 -0.1945836 -0.18742186 0.0069428524 -0.012313018 -0.18747346
-0.28501973 -0.26138684 0.15429114 0.09538506 0.00531716 -0.0044341595 -0.15733469 0.38757783
0.19639686 -0.06978676 -0.1551657 -0.085293345 0.4293544 0.066936046 -0.031303048 -0.15507802
-0.04785302 0.35000384 0.0005799102 0.068428434 -0.0884896 -0.16804451 0.31213343 0.15748402
0.04049264 -0.11174201 -0.15017089 0.39215544 0.19064608 0.2644211 0.022151051 -0.06664453
-0.0056123696 -0.022167107 0.11957514 -0.34375286 0.21825323 0.40023196 0.19451666 0.049015645
0.165953 -0.024172952 0.22663328 0.13273832 -0.056804948 0.038341075 0.1607238 0.368771
0.14008422 -0.09940265 -0.10486834 -0.27323472 0.14036989 -0.15214795 -0.27949762 -0.37871942
-0.19291174 -0.08934132 -0.3015996 -0.31730616 -0.033326577 -0.056871284 0.025690634 0.23119855
-0.0996414 0.047010385 0.18352517 0.03308553 0.5467737 0.28512126 0.018214617 0.030153586
-0.06320215 0.3989614 0.19301218 0.009729838 0.19159333 -0.07390625 0.20020589 -0.060174327
0.037950534 -0.07670817 -0.09253794 -0.695723 -0.09703238 -0.098848104 -0.17162295 -0.21381834
0.15743938 -0.08425999 0.037069086 0.25251064 0.11182762 0.036159668 -0.12579627 -0.26734102
0.22006212 -0.046426702 -0.06671944 0.00722085 -0.30836725 0.37009212 0.40233085 0.19358894
-0.09323368 -0.32958066 0.26018918 0.17149751 0.030619293 -0.06505133 -0.2646491 0.114115186
-0.016793625 -0.11452767 0.03234673 -0.15924774 0.003274189 -0.30906808 0.019883234 0.45056233

fc1.bias f4 [128]
00000000: beac 8aba f09d 04bd b65b a03b dc04 80bc
00000010: 0f96 10bd 61d1 eeb9 1c4a d3bc 37a1 b83c
00000020: ba8e 623c 3739 ebbc 4854 0f3b 34ca 2d3d
00000030: 8259 80bc a13c 84bc 4d6e 64bc 2a5e 143d
00000040: 2677 0a3c d1ac bd3c cc62 45bc 6050 193c
00000050: 1d9c b4bc a6de 9fbc d69e f7bc d5fd 123c
00000060: 10fa c23b 3d02 f3bb 7f69 2a3d 9cdc 083d
00000070: 51f3 613c c649 d8bb 4b0e 07ba 9203 1a3c
00000080: 494f f23c 7b0a 08bd ad69 abbb 1c87 273b
00000090: e274 bf3b e4e5 823d 271d 19bc 14fb 6ebc
000000a0: 5ec0 5abc 06c9 74bc a99c 013d a8af 863b
000000b0: ccd7 3eba 50e3 1f3c 2268 d8bc 65a8 e8bc
000000c0: fbd5 e63c fc8b adbc b22c 82bc 7b0a 29bd
000000d0: 2269 a23d 0dce 0b3d 2d0f b0bb 8633 f33b
000000e0: e497 13bd 8161 bdbc 2de5 15bd fe2b 07bd
000000f0: 955a 88bc 1d47 19bc 197b 873c e405 863c
00000100: fc16 db3b 3e0b dc3c 0285 1d3d c2ba 86bc
00000110: 6283 953b 1016 11bd 1f59 33bc 343a 92bc
00000120: 80db ef3c 11b0 11bc 266e 553c a1a7 a7bc
00000130: 5d4f adbb f39d 2fbc 40b3 b03b 2a0b 24bc
00000140: 0123 67bc 70fc 14bb 2e1a adbc dfa4 fd3c
00000150: 769d 19bd bd8b 443c fb68 ae3c 2b06 143d
00000160: 3edb 07bc b619 f63c 105f 28bd 9b94 1b3d
00000170: 8a68 1b3c 2fd5 f63b 9d02 b53c 0a00 853c
00000180: 7dbe ed3c e86f 49bb 6441 b73b 0624 c23c
00000190: ad7e fdbb a38b b6bb 0f9d 37bd 874f 3b3c
000001a0: a9d7 7e3b 1f65 4d3c d89e 013c 2149 453c
000001b0: 985a f7bb c288 d2bb 8be7 93bc ae75 033e
000001c0: eab4 2cbd 7d83 6f3d 964d b3bc cd9c 1abd
000001d0: 1ffd cabc d5e0 9abc 029e 763c faf1 283b
000001e0: 8f23 03bd 0761 abbc 6daa 87bc cb93 8d3d
000001f0: ae7f 0bbb 5109 91bc d6ef 863c 7c38 14bb
-0.0010580046 -0.032377183 0.0048937453 -0.015627317 -0.035299357 -0.00045550897 -0.025792174 0.02253781
0.013827974 -0.028713806 0.0021870304 0.042429164 -0.01566768 -0.016142191 -0.013942313 0.036222614
0.008451259 0.023153694 -0.012047481 0.009357542 -0.022047097 -0.019515347 -0.030227106 0.008971651
0.00595022 -0.0074160383 0.041604515 0.033413514 0.013790921 -0.0066005914 -0.0005151971 0.009400265
0.029578822 -0.03321312 -0.0052311034 0.002556271 0.005842791 0.063915044 -0.009345329 -0.014586229
-0.013351528 -0.014940506 0.031643543 0.0041102953 -0.0007280081 0.009758785 -0.026416842 -0.02840061
0.028178206 -0.021184914 -0.015890453 -0.04126976 0.07930209 0.034132052 -0.005372903 0.0074219136
-0.036033526 -0.023117783 -0.036595512 -0.03300094 -0.016644755 -0.009355334 0.01653819 0.01636023
0.0066860896 0.02686083 0.038456924 -0.016446475 0.004562781 -0.03542143 -0.010946541 -0.017850019
0.02927947 -0.008892075 0.01302675 -0.020465674 -0.005289002 -0.01071881 0.005392462 -0.010012427
-0.014107467 -0.0022733472 -0.021130648 0.030962406 -0.037503682 0.011996207 0.021290293 0.036138695
-0.0082920175 0.030041557 -0.041106284 0.037983518 0.009485373 0.0075327377 0.022095973 0.01623537
0.029021496 -0.0030736867 0.005592512 0.023698818 -0.007736048 -0.005570845 -0.044827517 0.011432535
0.0038885868 0.012536316 0.007911406 0.012041361 -0.0075486414 -0.006424994 -0.018054744 0.1283786
-0.04216472 0.058475006 -0.021887582 -0.037747193 -0.0247789 -0.018906036 0.01505232 0.0025778995
-0.032016333 -0.02092029 -0.016560758 0.06912955 -0.002128582 -0.017704638 0.016471785 -0.0022616675

fc2.weight f4 [64, 128]
00000000: 75b3 0c3c 89bd a9bd b785 313d b408 37bd
00000010: 37d1 26be 317b adbd 37dd 3cbe 9347 45be
00000020: 5870 a23d 042f 7ebd 19b3 f0bb 5806 923d
00000030: 7256 0b3e 9064 4c3e 6e3b 08bf 82cd 743e
00000040: 0aa7 543c 1140 d4ba e520 98bd 8b26 453d
00000050: fb20 49bd 1bdf 7dbd e16e 8d3d 360f 3a3e
00000060: ad84 553d b70a 8abe e6de e63c e8ae dabd
00000070: d6af 82bd 1086 2ebd f202 c53d cfbd f0be
00000080: 735b 0a3d a5bf b9bd 113c 623d 2580 4cbe
00000090: cc79 96bd dfa0 77be d0f5 9cbd b392 9b3e
000000a0: 3bc4 673d d1ff fcbd 0d08 5fbe 3b36 73bd
000000b0: 0c56 2d3d 59f4 75bd eb7e 04bd 2f15 67bd
000000c0: 0ddd ed3d 3c7c 373e f831 703d a05b 39be
000000d0: 1b70 ef3d bf85 1d3e e363 cd3a b63b ce3b
000000e0: d5c7 b9bd c0e1 91be b4bf fe3d f0bb 07be
000000f0: 8174 5a3e 752f c5be f02a 083e 21d6 08be
00000100: 77b6 2fbd d848 983d 8ecd ba3d 3e0e abbe
00000110: 948d 74bd b61b 5b3d 1d57 98bd afdc 233e
00000120: acf6 44bd 1f6a bfbd c4c2 d9be f1c5 fe3c
00000130: 7758 593e bf86 bebc 7be3 22bc f32c 84bd
00000140: 8995 7abe 482e ad3c 2d59 10bd 42cd 3bbc
00000150: 4370 e93c c031 1fbb cc99 b9bd 1158 4f3d
00000160: bb18 85bd 0bca acbd 83e1 833d 6473 28be
00000170: 3ae6 f7bc 2de4 be3d 06cd b33c d076 36bd
00000180: 00d6 29bd 7ad6 25be cfbb c8bd 70d1 d3bc
00000190: 52da 14bd 6f76 37be 4a5b 4f3d 55c3 6ebe
000001a0: 319e 15be a5d0 b0bd 8c69 393d 39a6 b0bc
000001b0: 9388 40bd 3c75 173e 2c38 4fbc 3ebe 5b3e
000001c0: e35f abbe a80d 0cbd 2206 92bd 3859 77bd
000001d0: 18de 6bbe ebc9 9fbd 922e 513c bc37 99bc
000001e0: 8923 fdbe b442 f5bd dbb0 b73b 7be0 a0be
000001f0: 41fe d0be 6cb9 16bc 6936 d8be 5f51 21be
00000200: a954 7cbd 1f29 46bd b4c9 72be f9d6 05be
00000210: 7a90 b7bd 554b 94be a11d 4abe f982 20bd
00000220: a3a2 f5bc f96a 87bc 02e8 9fbc 5f3d febc
00000230: 49b2 1fbc f41d 4f3e 2a1b 62be 5274 6f3e
00000240: bcd2 f9bd 7b86 dfbc 8f1b 933d 6285 863d
00000250: b80b 0bbe e518 c8bb e054 0ebe 6e12 a53d
00000260: 9760 48bd eded 72be 2b13 123d 847e 31bd
00000270: 61f3 42bd 8a97 9bbd 8683 0d3d 0f0c babe
00000280: 48f7 c23c e046 1cbe 653a 3dbd 6b08 17bd
00000290: ca5c 4b3c 4d56 87be 617b a3bd 385a 0e3e
000002a0: ac2b 033d 9487 c9bd b077 98bd ad9f e53c
000002b0: 19f0 7d3d b6fc 81bc ce99 08be 77b3 cebb
000002c0: 20dd 92bd 6181 ca3d 2204 553e 1fd0 d9be
000002d0: 6771 b43d dabe 4f3e 278a a93d 77c2 3a3c
000002e0: cd83 6abe 3f05 19be e847 a73d 9fa6 6abe
000002f0: fef0 643e a1f3 10be 1706 e0bd 55aa b9be
00000300: 0aab e0bd a181 89bd 00cd d43d d9b4 60be
00000310: 5d50 e83c 65d9 023e 76a9 8dbd e4ea 7e3d
00000320: af0c 78bc ba2d 9abd 0514 69be a796 a03c
00000330: c8c7 633e bbea 6b3b 2641 643c 3bae 8bbe
00000340: 1989 c8bd 1be3 14be 6085 eabd 5f56 a03d
00000350: 376b 92bd 14d5 1dbd cea9 83be 6bd9 003e
00000360: 7ccf 29be c556 793d e90a 613c 5b27 87be
00000370: 91a8 e03c 94e1 2e3e befd 03bd 511e 09bf
00000380: 5732 4cbb 1fb3 633c b5f5 75be f12a 6bbd
00000390: d9de c1bd 641e 15be 8c5f d03d 9de4 4cbe
000003a0: 7489 c2be 274c 42be c545 92bd 2277 a83b
000003b0: 75f6 533d 434b 163e c5b8 d5bd ec69 8d3e
000003c0: 9a96 c2be 7491 20be 3fc9 30bd c696 23be
000003d0: b0cb 39bd 9053 2c3c 4bfb a3bd e8c3 343b
000003e0: 89da 9fbe 51c7 aabe 45d5 b3ba 1849 99be
000003f0: ab00 51be 0f67 bfbc e0d6 bebe 3c00 aabd
0.008587708 -0.08288104 0.04334041 -0.044686034 -0.16290747 -0.084707625 -0.18443762 -0.19265585
0.07931584 -0.062056556 -0.007345569 0.07130116 0.13607195 0.19960237 -0.5321568 0.2390652
0.012979278 -0.001619341 -0.07428149 0.04813246 -0.04910372 -0.061980348 0.06905914 0.18169865
0.052128483 -0.269613 0.028182458 -0.10677892 -0.06381194 -0.04260832 0.096197024 -0.47019812
0.03377862 -0.090697564 0.055233065 -0.19970758 -0.0734745 -0.24182461 -0.076640725 0.3038536
0.056583624 -0.123534806 -0.21780415 -0.05937789 0.04231839 -0.06004748 -0.0323476 -0.056416687
0.11614428 0.17918485 0.058641404 -0.18101358 0.11691304 0.15383051 0.0015670027 0.006293739
-0.09071318 -0.28492546 0.12438908 -0.13255286 0.21333505 -0.3851277 0.1329763 -0.13362934
-0.04289862 0.07435769 0.09121238 -0.33409303 -0.059705332 0.053493224 -0.074384905 0.16002153
-0.048086807 -0.09346413 -0.42531407 0.031100245 0.21225153 -0.023257611 -0.009941931 -0.06453886
-0.24471106 0.021140233 -0.035241295 -0.0114625115 0.028495913 -0.0024291128 -0.090625376 0.050621096
-0.064988576 -0.08436974 0.06439497 -0.16450268 -0.030261148 0.09320865 0.021948349 -0.044546902
-0.041463852 -0.16195098 -0.09801447 -0.025856704 -0.03634102 -0.17916273 0.05062417 -0.23316701
-0.14611126 -0.08633546 0.045266673 -0.021563636 -0.047005247 0.14790815 -0.01264767 0.2145929
-0.33471593 -0.03419271 -0.07130076 -0.06038782 -0.23033941 -0.07802185 0.012767451 -0.018703334
-0.49441174 -0.11975613 0.0056057996 -0.31421265 -0.4081898 -0.009199481 -0.42229012 -0.15753697
-0.061604176 -0.04837906 -0.23709756 -0.13070287 -0.089631036 -0.28963724 -0.19737865 -0.039187405
-0.029984778 -0.0165305 -0.01951981 -0.031035123 -0.009747096 0.2022627 -0.22080675 0.23384216
-0.121983975 -0.027285805 0.07182991 0.065684095 -0.13578689 -0.0061064833 -0.13899565 0.08060156
-0.04892024 -0.23723574 0.03566281 -0.043333545 -0.047595385 -0.07597263 0.03454926 -0.36337325
0.023799554 -0.15261412 -0.046198267 -0.036873262 0.012412259 -0.2643303 -0.07982517 0.13901603
0.03202407 -0.098403126 -0.074447036 0.02803024 0.061996553 -0.015867572 -0.13339922 -0.006308015
-0.071710825 0.09887958 0.20802358 -0.42541596 0.08810692 0.20287648 0.082783036 0.011398903
-0.2290184 -0.14943407 0.08168012 -0.22915123 0.22357556 -0.14155437 -0.109386615 -0.36262766
-0.10970123 -0.06714178 0.10390663 -0.21943988 0.028358633 0.12778242 -0.06917088 0.062235728
-0.015139743 -0.07528253 -0.22761543 0.019603087 0.22244179 0.0035998065 0.013931548 -0.27281365
-0.09791774 -0.14539759 -0.114512205 0.07828974 -0.07149356 -0.038533285 -0.25715488 0.12582938
-0.16583055 0.060873765 0.013735511 -0.26397213 0.027424129 0.17078239 -0.03222441 -0.53561884
-0.0031157935 0.013897686 -0.24019511 -0.057414 -0.09466333 -0.14562374 0.10174474 -0.20009084
-0.37995493 -0.18974362 -0.07142214 0.005141155 0.05174871 0.14677148 -0.104356326 0.27619874
-0.38005525 -0.15680486 -0.043160673 -0.15975484 -0.045360267 0.01051797 -0.08006915 0.002758259
-0.31221417 -0.3335519 -0.0013720175 -0.2993858 -0.20410411 -0.023364572 -0.37273312 -0.08300826

fc2.bias f4 [64]
00000000: 3c4f 4ebc 780c c53a 4004 f9bb e832 01bc
00000010: 1a7b 633b dd3b 6cbb bb90 64bc 797e fd3a
00000020: 6c0a acbb 29a4 49bc 1207 553b 422c e73b
00000030: bbb8 ebba 4f58 f9bb 201d 12bc d938 37ba
00000040: b945 2bbc cbe1 b03c b200 9539 d534 993b
00000050: 7eeb 11bc df4a 56ba d4cc da3b 1a6d ba3b
00000060: aa91 9a3b efee 10bc ec07 e23a 1f2d 533b
00000070: 5733 8e3b 9e36 a9bc a203 17bc 04b4 413b
00000080: 86b6 abbc aa95 ff3b 973e 8238 37ef 4dbc
00000090: 8611 dbbb bd42 593c f9a2 83bb 38a5 dc39
000000a0: 3ac0 503c eec0 d1bb 549a 0d3c 9982 39bc
000000b0: 3e42 bc3b bda4 11bb 2250 84bb f2b3 d6ba
000000c0: 9787 93bb 9091 823b ca83 07bc a7c4 33bb
000000d0: 5fff 0c3b 02c3 c6bb 254f 263b 3e1e 5a3b
000000e0: 5302 a3bb 7d3c a5bb 10e2 1bb9 0bae 98bb
000000f0: 5ba7 b0b9 5733 863a 915e 6fbc 39ee 8d3c
-0.012592133 0.0015033623 -0.0075993836 -0.007885672 0.0034710825 -0.0036046423 -0.013950522 0.001934006
-0.005250266 -0.012307205 0.0032505435 0.0070548365 -0.0017984131 -0.007609404 -0.008918077 -0.0006989367
-0.010453635 0.021592041 0.00028420013 0.0046754875 -0.008906243 -0.0008174609 0.0066772494 0.0056892755
0.0047170715 -0.008846029 0.0017244793 0.003222294 0.0043396163 -0.020655926 -0.009217175 0.002955676
-0.020961057 0.007799824 6.210541e-05 -0.01256924 -0.0066854386 0.013260541 -0.0040172306 0.00042084767
0.012741143 -0.006401173 0.008642752 -0.011322641 0.0057452014 -0.0022223436 -0.004037873 -0.0016380532
-0.0045022476 0.0039846376 -0.008271167 -0.0027430446 0.0021514518 -0.006065727 0.0025376764 0.0033282186
-0.0049746423 -0.005042611 -0.00014866167 -0.0046594194 -0.00033694025 0.0010238689 -0.014609949 0.017325507

fc3.weight f4 [32, 64]
00000000: e5b5 743e 1869 173e b804 413e 1954 52ba
00000010: f10b 4bbd 3e6b c3be 1fb3 2e3d a14e 5d3c
00000020: 503d b1bd 0b60 3d3e 35c7 213d 2bf5 863e
00000030: f2fb a23e 839d ab3d 8a27 e1ba fe35 573d
00000040: 3298 a1bd 53f2 9b3c 5e61 783d d859 6b3e
00000050: 5e4e 0e3e fb00 ed3d ce7a 2e3d 9d46 9d3e
00000060: cdc2 843d 7c62 07be e6ec 1fbe 6052 873e
00000070: 13f5 e5bb 6987 343c d042 893d 0fd1 d43c
00000080: f453 a13e db33 9e3d 5c25 c2be 08eb 3d3d
00000090: 1e94 b43d e49e c5bd bc76 90bd 1011 df3d
000000a0: 17c9 e73d a82a c93c caa9 c0bc 7472 f83d
000000b0: 786f 7f3d 83f6 cebe f285 12be 0296 c73c
000000c0: 0220 f7bc 73b3 a93c 1786 753d 84c2 a83d
000000d0: 6186 cebd 442f 013e 89be bcbe 2bf5 103e
000000e0: df9c 2cbc 3591 e8bd 6ef6 543e f5a1 da3d
000000f0: f146 0a3e c48b 18be 5983 f93c 5f0f 63bd
00000100: 0e42 fb3d 0848 ce3d 9786 63bc dd7d 6abe
00000110: a810 273e 4ac7 be3d e90d 753e a104 71bc
00000120: a667 7f3e 01f0 f93b 4a80 233e b14a a83c
00000130: acbf de3d c499 e3be 0364 90be 67ff 62bd
00000140: c551 463d b936 00be 5a44 0c3d b631 0a3e
00000150: 9362 e639 20fa c5bd 71b9 80be 9524 8c3d
00000160: b7f5 1cbe acc0 963c 4c67 963d 2601 0e3e
00000170: e4de 9cbd 76ee e4bb 45d4 38bd 00e2 d73c
00000180: f067 893d bff2 3f3d 49d8 273d 8f8e bebe
00000190: 7f7e 5ebe f23c 833e 6b6d 853d c62e 00bf
000001a0: d4fa 3a3d 01d4 0dbd 5187 653e f15a 693c
000001b0: cdba e53d 2499 a93d 8319 d33d c263 84ba
000001c0: 34e8 5abe da91 80be cebb c2be 22c7 6f3c
000001d0: 9b4c 93bb b856 823c d359 4c3d 6789 c93b
000001e0: f8d0 3b3e c79e c53d e629 cb3c 6c8a 1bbe
000001f0: af9a c0bc e674 253e 9355 19bd 8dff bcbd
00000200: a9ed 983d 946e 8d3d f32b fbbd 5de7 193d
00000210: 2e31 3e3e ed08 11bd 4ee7 1d3e 29fb 99bc
00000220: 8b21 203e 2d9f 78bd 10b0 493e 31e6 85bd
00000230: b41b 083c 4ac1 6d3d f873 50be 0d1b e0be
00000240: 0e17 7f3d b32d 4fbe 4c90 04be 5998 1e3d
00000250: 0d16 47bd b346 71bd 41b1 cbbe d104 0fbe
00000260: 2c9f 72bd 4d59 beba 269f b33b b069 55be
00000270: 9254 e0be 4c92 c4bc a9c9 0abe d600 6fbd
00000280: 25a8 c1bd f736 033d e01d 833c beca 8abb
00000290: 3177 68bb c016 493d c1f0 98bc 7540 2bbe
000002a0: 318f 4a3d 80c6 afbd d5a3 2e3e 5ee6 863d
000002b0: 04a5 163e 7d2e 033d 9331 b7bc 493f 1cbd
000002c0: 5a3c 23bd 9e42 473d cff0 eabe 0523 03bf
000002d0: e791 8dbb a1cb e6bd 4715 1abd 090e 90bd
000002e0: ed05 663e 234f d0bb c641 87bd 3804 853d
000002f0: 543f adbd 0eaa 7e3d 6818 e4be f705 85bb
00000300: 6590 073e 8f75 283e 4868 3bbc f8db 99be
00000310: 8c8f 263e e785 9b3c d510 a03d 0778 c43d
00000320: c3a2 443e 4d11 83bc dc08 243e c0cb 8dbc
00000330: 7b84 013d 2b56 89be 4f30 2cbe f612 993d
00000340: f0fe cc3d 04f2 443d 2e03 e3bc aa9a 443e
00000350: 62e3 adbc f048 bbbe fa3a 3bbd 4f80 c3bd
00000360: 3528 0bbe 63df 773d 58f7 16bb 0ed0 dcbb
00000370: c397 3e3d 74a7 693e d283 90bb 0184 b9bd
00000380: 5685 cf3c 8d18 423d 8450 c4bb 4d15 80be
00000390: f9b3 96be bd98 4c3e e9e3 763d faf3 fcbd
000003a0: 8a89 013d 894e 0c3e a4be 363e 1434 a93d
000003b0: 64db 2e3e fb95 423e c109 853e 62f3 993c
000003c0: 01f0 0bbe cead afbe 5b9a b63d 9a86 5ebc
000003d0: 3201 d9bd 5e27 53bd d497 b13d 63bc c5bb
000003e0: b31e 143e 2292 eaba 7139 f8bd 035e cfbe
000003f0: c1f8 f6bc 9e07 733e 7c7e c83d 3a01 50be
0.23897512 0.14786184 0.18849456 -0.0008023396 -0.049571935 -0.38167757 0.042651292 0.013507516
-0.086542726 0.18493669 0.03949662 0.26358923 0.31832844 0.08379652 -0.0017177921 0.052541725
-0.07890357 0.019036448 0.06063973 0.22983491 0.13897082 0.11572453 0.042597584 0.30717936
0.06482468 -0.13221163 -0.15617713 0.26430035 -0.0070177405 0.011018612 0.067021966 0.025978593
0.31509364 0.077247344 -0.37919128 0.04636672 0.088173136 -0.096494466 -0.07053897 0.10891926
0.11317652 0.024556473 -0.023518462 0.12131205 0.062362164 -0.4042245 -0.14308909 0.024363521
-0.03016663 0.02071545 0.05994233 0.08240226 -0.100842245 0.12615687 -0.36864117 0.14156024
-0.010535448 -0.11355821 0.2079713 0.10675422 0.13503624 -0.14897066 0.03045814 -0.05543458
0.12268458 0.100723326 -0.013887069 -0.22899576 0.16314948 0.09315355 0.23931088 -0.014710576
0.24941882 0.0076274876 0.15966907 0.020543428 0.10876402 -0.4445325 -0.28201303 -0.055419352
0.048417825 -0.12520875 0.034244873 0.13495526 0.00043942462 -0.09666848 -0.2514148 0.06842915
-0.15328108 0.01840242 0.07343921 0.13867626 -0.076597005 -0.0069864346 -0.04512431 0.026352882
0.06709278 0.04686236 0.04097775 -0.3721814 -0.21727942 0.25632435 0.065150104 -0.5007137
0.045649365 -0.03462601 0.224149 0.0142428735 0.1121727 0.082811624 0.103076 -0.0010100531
-0.21377641 -0.25111276 -0.3803391 0.014634879 -0.004495216 0.015910491 0.04989035 0.006150413
0.18341434 0.09649425 0.024800252 -0.15189523 -0.023511259 0.16157874 -0.037435126 -0.0922843
0.07467205 0.06905857 -0.12264242 0.03757416 0.18573448 -0.035408903 0.15420267 -0.01879652
0.15637796 -0.060698677 0.19696069 -0.06538046 0.008307386 0.058045663 -0.20356739 -0.43770638
0.062277846 -0.20232277 -0.1294567 0.03871951 -0.048605014 -0.058905315 -0.39783671 -0.13966681
-0.05923383 -0.0014522463 0.0054816185 -0.20841098 -0.43814522 -0.023995541 -0.1355349 -0.058350407
-0.09455899 0.03203484 0.016005456 -0.0042355945 -0.0035471434 0.04909396 -0.018669488 -0.16723807
0.049452964 -0.08582783 0.17054684 0.06586908 0.14711386 0.032026757 -0.022362506 -0.03814629
-0.039852478 0.048647515 -0.45886847 -0.5122531 -0.0043203714 -0.11269308 -0.037617948 -0.07033927
0.22463198 -0.00635709 -0.06604342 0.06494945 -0.084593445 0.062173896 -0.4454987 -0.004059549
0.13238676 0.16451095 -0.011438437 -0.30050635 0.16265696 0.018984748 0.078157105 0.09593206
0.19202714 -0.01599946 0.16019005 -0.01730907 0.031620484 -0.26823553 -0.16815303 0.0747432
0.10009563 0.048082367 -0.027711477 0.19199625 -0.021226589 -0.36579084 -0.04571054 -0.09545957
-0.13589557 0.060515773 -0.0023035612 -0.0067386692 0.04653145 0.22817785 -0.0044102455 -0.09058381
0.025332134 0.047386695 -0.0059910435 -0.2501625 -0.29434183 0.1998014 0.060275946 -0.12351222
0.031625308 0.13701834 0.17846161 0.08261886 0.17075878 0.19002526 0.25984004 0.018792812
-0.13665773 -0.3431229 0.0891616 -0.013581896 -0.10595931 -0.051551215 0.08671537 -0.0060344203
0.14464836 -0.0017896334 -0.12120331 -0.40501413 -0.030147912 0.23733374 0.0978975 -0.20312968

fc3.bias f4 [32]
00000000: cd42 b23c 8bb9 caba 7fcb 8dbc 3681 b6bc
00000010: 6862 ee3b 3a73 ef3b 285a 94bc 906e dd3c
00000020: ec84 ffba bce3 aebc 2cba 1c3c b12b 5f3b
00000030: e842 363c b126 873c a69e ffbb 6ce8 04bb
00000040: d6f0 b93c 0530 433b e45d c73c eae5 dfbc
00000050: 5ab5 b53b 38fa 36bb 4d0f fb3c 8b9e c4ba
00000060: 1bd5 8c3a 91a1 be3c 61cc a8bc 2e79 ccbc
00000070: 487b 43bc d09f 12bb 5d3a bebc 6b0c 14bc
0.021760369 -0.0015466673 -0.017308949 -0.02227841 0.0072749145 0.0073074372 -0.018109396 0.02703026
-0.001949457 -0.021348827 0.009565871 0.0034053142 0.01112435 0.016497942 -0.007800895 -0.0020280136
0.022697847 0.002978326 0.024336763 -0.027331311 0.0055453004 -0.0027920138 0.030646944 -0.0015000863
0.0010744663 0.0232704 -0.020605268 -0.024960127 -0.011931248 -0.0022373088 -0.02322119 -0.009036164

fc4.weight f4 [2, 32]
00000000: 45c4 cfbd da92 7240 d468 6b40 a57e 7440
00000010: 4f44 2c40 e2e3 7740 4268 6e40 8d61 213f
00000020: 01ac 7040 7550 bc3e 5c1f eb3d 2b3e 7640
00000030: 4fca b03d 29a2 7440 91b7 de3d 894e 7b3f
00000040: 8a4d 4f40 6d1c f43e 6ae3 db3e dd7e 5040
00000050: 5033 0abe 031f 0640 4584 2c40 533b 0940
00000060: 6e79 0640 9019 6340 4d4e 7a40 c45e 0040
00000070: b56d 7840 7a78 7040 f7ee e13e 7ee1 6d40
00000080: c08f 7e40 5a09 1d3f 6eee 7d3f 4410 a03d
00000090: 6778 3140 295f e23d 808b 323f c609 7740
000000a0: 6936 433e 818b 7640 c288 7e40 f61b bc3e
000000b0: 90cc 7840 781a b1bd ace0 7740 ebd6 7240
000000c0: 8d4b 1240 212c 7940 d5ae 7e40 6b97 0d40
000000d0: 721f 7f40 70ea 5240 182f 3640 4302 5040
000000e0: 9bac 5140 2dbd f43f 2bb9 0c3e 88b2 5b40
000000f0: 852a 0c3f 234a 6e3e a7b4 7840 48e2 0d3f
-0.10144857 3.790213 3.6782732 3.8202298 2.6916692 3.8732839 3.7251134 0.63039476
3.7604983 0.36780134 0.11480591 3.8475444 0.08632337 3.8223975 0.10874856 0.9816671
3.2391076 0.47677937 0.4294694 3.2577431 -0.13496137 2.0956428 2.695573 2.1442459
2.1011615 3.5484352 3.911029 2.005784 3.881696 3.7573533 0.44127628 3.716888
3.9775238 0.61342394 0.9919194 0.078156024 2.7729738 0.110533066 0.6974411 3.8599715
0.19063725 3.8522646 3.977097 0.36740083 3.8874855 -0.08647627 3.873088 3.7943676
2.2858613 3.8933184 3.979421 2.2123668 3.9862943 3.295559 2.8466244 3.250138
3.27616 1.9120232 0.13742511 3.4327717 0.5475238 0.23270468 3.8860261 0.554234

fc4.bias f4 [2]
00000000: ddd4 3b40 353d 4440
2.9348671 3.0662358

bn1.weight f4 [128]
00000000: 8676 823f bed6 5f3f 9e5a 733f 6616 633f
00000010: 6e16 8a3f f78e 8d3f 9421 773f b5e7 713f
00000020: 7cc7 843f 23b5 943f e7c1 703f 67ea 703f
00000030: 64a8 853f ddb5 713f fa94 7c3f 6b2e 873f
00000040: 95db 8e3f 242a 7b3f 1e4b 8c3f e5d0 743f
00000050: 5c0e 743f 9eca 593f 5f98 7d3f d3b0 573f
00000060: c35a a43f b611 983f 6059 6c3f 682d 6e3f
00000070: ef03 973f c337 7f3f 01b7 643f 54cb 803f
00000080: 6f75 763f 2901 8b3f 0537 883f f601 7e3f
00000090: 7eee 643f 38c6 753f bc0d 873f e82f 4f3f
000000a0: b06c 823f c1bd 513f 6d90 7f3f 3e0d 843f
000000b0: 00fc 863f 93a8 873f 482e 803f e2be 813f
000000c0: 4591 663f 48da 593f fd40 8a3f bcea 853f
000000d0: 4096 8c3f d0f0 693f 05bc 6e3f c65f 843f
000000e0: 555a 903f 434b 553f cffe 883f 91f3 6f3f
000000f0: 26b4 553f 6c20 663f bb6f 703f 8a8c 733f
00000100: c31e 643f f086 733f 66bd 6f3f 75ff 683f
00000110: 1ab2 6e3f e9d9 8d3f 28cd 773f 0d8c 783f
00000120: ca9b 673f bc46 693f 22e0 7e3f 3785 603f
00000130: 1668 583f 1b4b 873f f86e 713f 39bc 793f
00000140: 19b2 763f 9561 8a3f 5a1b 813f 8697 7f3f
00000150: 97be 713f d275 883f fe62 4b3f d932 6a3f
00000160: 9b44 6f3f 1e2e 743f 8edc 803f 0456 7e3f
00000170: 9e09 853f f200 5c3f 3144 763f 25a5 783f
00000180: 6d5c 7e3f a5a7 563f 3ca3 7c3f 588a 703f
00000190: 39b2 503f 4731 6c3f c176 7f3f 830d 823f
000001a0: 7e2a 713f b8d8 6c3f 356a 893f e703 6b3f
000001b0: 773a 6b3f abb5 613f f1cd 7c3f 9336 843f
000001c0: da99 5b3f 525e 723f fc4e 6e3f a03d 923f
000001d0: 4044 613f 644a 773f db29 523f 8bf4 753f
000001e0: d637 813f bec8 4b3f 82b4 663f dbd8 7d3f
000001f0: 4a42 703f 4547 713f 11a7 733f 2881 883f
1.019242 0.87437046 0.95060146 0.8870605 1.0788095 1.1059254 0.9653561 0.9449418
1.0373378 1.1617779 0.9404587 0.9410767 1.0442014 0.94418126 0.9866482 1.0561041
1.1160761 0.98111176 1.0960424 0.9563125 0.9533441 0.85074794 0.99060625 0.8425419
1.2840198 1.1880405 0.92323875 0.93038034 1.1798075 0.9969446 0.8934174 1.0062051
0.9627294 1.0859729 1.0641791 0.9922174 0.8942641 0.9600558 1.0551066 0.80932474
1.0189419 0.81930166 0.9982975 1.0316541 1.0545654 1.059832 1.0014124 1.0136378
0.90065414 0.85098696 1.0801083 1.046226 1.0983353 0.91383076 0.93255645 1.0341728
1.1277567 0.83317965 1.0702761 0.9373103 0.8347801 0.8989322 0.9392049 0.9513632
0.8910944 0.95127773 0.93648374 0.91014796 0.9324051 1.1082126 0.9679742 0.970887
0.9047209 0.9112356 0.9956075 0.8770327 0.8453382 1.0569795 0.9430995 0.9755283
0.96365505 1.081103 1.0086472 0.9984058 0.9443144 1.0660956 0.79447925 0.9148384
0.9346406 0.9538287 1.0067308 0.9935 1.039356 0.8593894 0.961978 0.9712699
0.9935978 0.83849555 0.98686576 0.93961096 0.81521946 0.9226269 0.9979058 1.0160373
0.9420546 0.92518187 1.0735537 0.9180283 0.91886085 0.8816783 0.9875174 1.0329155
0.85781634 0.9467517 0.9308927 1.1425056 0.87994766 0.96597886 0.82095116 0.9607627
1.0095165 0.79603183 0.90119183 0.9915902 0.9385115 0.94249374 0.951768 1.0664415

bn1.bias f4 [128]
00000000: 228d 55be 4e5b 6fbe 877a d5bd f84c b2bd
00000010: ae90 67be c84f 88be 5639 4c3c 473a 06be
00000020: cece 4a3d f410 b9be 4ca6 92be e0ba 3cbe
00000030: 7572 4cbe 8ed2 07bf f0df 26be 4341 d6be
00000040: 7c95 c5be b322 c5be 856a 5dbe c921 e4bd
00000050: 6da2 76be 7eef 53bd d797 c6bd 097b b0be
00000060: 7c6d 12be 0b5a e1bd 5bb5 24be af26 f33c
00000070: 43e9 27bd bd1d 2abe 8144 f3bd 38e0 a73c
00000080: 046c 19be d8e9 42be 5014 14be a7e2 1abe
00000090: 1024 60be 2a3e 1cbe ce21 11be 18f7 b5be
000000a0: 4b53 febd 0fd4 42bc 3f9c debe c2b3 23be
000000b0: 296a 3fbd a079 b1be d7cb 8ebd 51eb 85be
000000c0: 3b93 0ebf 97ce 89be 2dbd 0ebf 1b45 bcbe
000000d0: dc03 e6be a198 9bbe d9c1 a0be d628 c6be
000000e0: 8318 3ebe 7e01 22be 75b9 d4be fa24 30be
000000f0: 4da8 a1be de98 2fbe 9c1b 44bc 5bcd 91bd
00000100: 5b8f d3bd a6b2 b4bd 109a 0cbf a205 24bc
00000110: 80bc e43a e5d9 cbbc 5162 95be 7167 10be
00000120: 09eb 2bbe 7346 a8bd 0c1b 04be 7101 6abe
00000130: 4f17 cfbe b968 96bd f36d 25be bb9b a0be
00000140: fcdc 87bd 4f41 e3be 48cf 9fbe 23c3 9bbe
00000150: a430 4abe 2a96 ccbd 3d0d 77bd 3caa a5be
00000160: 1574 06be aa84 8bbe d0e9 b5bd a74d 52be
00000170: 5e7a 94bd 0e32 1bbf 0b17 46be 9ee6 95bd
00000180: 4e77 8bbe 9cfd 97be ac18 843d a11f e9bc
00000190: 3eee 253d a1fd 87be 5a5c 05bf e446 d9bd
000001a0: c946 af3c bce7 78be e9e0 75be bcc7 33bc
000001b0: e7a4 18be 9827 86be 6127 59bd e593 19bf
000001c0: bd5d 56be de97 e0be 7bc8 513d 3c80 f1be
000001d0: 03fe 67be 49c7 ddbe bc4b b43c 9a38 23bd
000001e0: 2847 f6be 8327 efbe 3f9c 0bbf 7307 8abe
000001f0: ddab db3c d6a9 22be 5b19 91be a853 c1be
-0.20854619 -0.23374674 -0.10423761 -0.08706087 -0.22613785 -0.26623368 0.012464842 -0.13108169
0.04951363 -0.36145747 -0.286425 -0.18430662 -0.19965537 -0.53055656 -0.16296363 -0.41846666
-0.3859061 -0.38503036 -0.21622665 -0.111392565 -0.24085398 -0.05174207 -0.0969693 -0.34468868
-0.14299577 -0.110035025 -0.16084807 0.029681532 -0.04099394 -0.16612907 -0.118783005 0.020492658
-0.14982611 -0.19034517 -0.14460874 -0.15125524 -0.21888757 -0.15258089 -0.14173052 -0.3554008
-0.124182306 -0.011891379 -0.4347858 -0.15986541 -0.0467321 -0.34663105 -0.06972473 -0.26156095
-0.55693406 -0.26915428 -0.5575741 -0.36771473 -0.4492482 -0.30389884 -0.31397894 -0.3870303
-0.18564038 -0.15820882 -0.41547742 -0.17201605 -0.31573716 -0.17148158 -0.011969473 -0.071192466
-0.10330077 -0.08823137 -0.5492258 -0.010011109 0.0017451197 -0.024884174 -0.29176572 -0.1410196
-0.16788878 -0.08216562 -0.12900943 -0.22852112 -0.4044747 -0.07344193 -0.16155224 -0.31368813
-0.06633946 -0.44385764 -0.3121283 -0.30422315 -0.19745117 -0.09989579 -0.06031536 -0.3235644
-0.1313022 -0.27249652 -0.08882487 -0.20537435 -0.07249902 -0.6062325 -0.19344728 -0.07319377
-0.2723946 -0.29685676 0.06450018 -0.028457465 0.04051041 -0.2656069 -0.5209404 -0.106092244
0.021396058 -0.2430715 -0.24011578 -0.010972913 -0.14906655 -0.26202083 -0.05301607 -0.59991294
-0.20934196 -0.43865865 0.051216584 -0.47168148 -0.22655492 -0.43316105 0.02200877 -0.0398489
-0.48101163 -0.46709833 -0.5453529 -0.26958808 0.02681535 -0.158851 -0.28339657 -0.37759137

bn1.running_mean f4 [128]
00000000: a223 6a3d df8c b8bc af0c 02bc a00a d8bb
00000010: 7766 843c ae3f 953d 3f3c 12bd abeb 3f3d
00000020: d1af 0a3d 69f1 943d bdd3 3dbd 5076 a23c
00000030: 3e78 2c3d ae71 493d ae9f 67bc 6189 f43d
00000040: b7ed 913d 3bfd f63c 1a79 793c ab90 6a3a
00000050: 1cb8 e73c 22cb c7bd c465 77bd 3649 21bd
00000060: fe09 873c 9339 bd3d b863 edbb d228 013c
00000070: b682 fb3c 3b82 c0bc a45b 9a3c f0dc 073d
00000080: d77d 383d 8faa e2bc 1028 84bc c044 983c
00000090: fd1b c3bc e048 253e a0dd 8639 5487 583d
000000a0: d867 a7bd dc30 92bd f0d4 e23d 8b3a d33a
000000b0: e990 9bbc 0afb 833d cad2 10bc f5bd b8bd
000000c0: f786 4b3e 45c7 463d 3155 b43c 4f06 073d
000000d0: 1ecc 0b3e 1e84 c73c 98cb 8d3c 7fca 843d
000000e0: 7beb a33d 0cd2 0a3d 7fdc afbc f9e1 003d
000000f0: 3ecf 693c bb58 523d d42f 7e3d d419 a63d
00000100: a5b3 e2bc 9325 9cbc 9b53 633d 684c 70bc
00000110: acea 8abd 96a9 00bd 3561 a83c 6cdf 263d
00000120: 327b a03d 28d6 06bd f1b6 c83d 3637 2dbc
00000130: 5ffb 013d 6afa 51bd 5f21 033d 0c31 c53c
00000140: b32b 0ebd af6d 733d 9cc2 74bb 815b f13c
00000150: d88e 1dbc 77a6 903d 5e61 41ba 8364 a53c
00000160: fbe2 543d b031 d43d f79f 87bd df81 3b3d
00000170: 975e ac3d 1099 fd3d f8b7 f8bc dbf5 1f3d
00000180: 44ef aa3d a686 6d3d db9b f6bc be46 99bc
00000190: cfdb c7bd eeb6 383d 9852 723c 49e9 0abc
000001a0: ca70 7f3d 3b68 a53d 6936 e33d 41b7 8fbc
000001b0: f13b 313d 467c f63c 0281 84bd 0df3 233e
000001c0: 5d2f 673d fd5c f93d 99df 87bb 4702 96bc
000001d0: 198e 34bd fb27 50bd 47a6 22bd c427 80bc
000001e0: 1169 1e3c 5461 4e3c 086c 4e3b 865b 653e
000001f0: d844 8a3d cde4 543d 0289 b03d 07db bb3b
0.05716289 -0.02252811 -0.007937594 -0.0065930635 0.01616214 0.072875366 -0.035701986 0.04685561
0.033859078 0.07272608 -0.046344507 0.019831806 0.04210686 0.04918068 -0.014137192 0.119402654
0.07125419 0.030150047 0.015226627 0.0008947949 0.028286032 -0.097555414 -0.060399786 -0.03937646
0.016484257 0.09239497 -0.0072445534 0.0078832675 0.030701976 -0.023499599 0.018842526 0.033169687
0.045041885 -0.02766922 -0.016132385 0.01858747 -0.023817057 0.16141081 0.00025723595 0.052863434
-0.081741035 -0.071382254 0.11075771 0.001611547 -0.018989997 0.06444366 -0.0088393185 -0.090206064
0.19875704 0.048529882 0.022013279 0.032965 0.13652083 0.02435499 0.017308995 0.064839356
0.08003899 0.033891723 -0.021467445 0.031465504 0.014270602 0.05135415 0.06205733 0.08110395
-0.027673552 -0.019060886 0.055499654 -0.014666654 -0.06783041 -0.03141173 0.020554164 0.040740415
0.07835998 -0.03291908 0.09800518 -0.010572245 0.031733867 -0.051264204 0.032014247 0.024071239
-0.034709644 0.059430774 -0.0037347442 0.029462578 -0.009616576 0.07063001 -0.00073768746 0.02018953
0.051974278 0.1036104 -0.06622308 0.04577815 0.08416479 0.1238271 -0.03036116 0.039052825
0.083464175 0.05798974 -0.030103615 -0.01871049 -0.09758722 0.04509633 0.0147902 -0.008478471
0.062363423 0.08076521 0.11094362 -0.017543437 0.043270055 0.030088555 -0.06469919 0.16010685
0.056441654 0.12175939 -0.004146528 -0.018311633 -0.044080827 -0.05081938 -0.039709356 -0.015643962
0.0096686045 0.012596447 0.0031497497 0.22398195 0.06751412 0.051976014 0.08619882 0.005732897

bn1.running_var f4 [128]
00000000: 2d00 3c3d 192a 0a3d 279e 1e3d 5c13 753d
00000010: 7644 1e3d 2ac0 783c 7fb9 2e3d fe27 7c3d
00000020: c86f 993d 7328 a53d ffbc 393d 495e 073d
00000030: 95c7 5a3d 7754 cd3d a518 3a3d c898 ef3d
00000040: 3bd8 403d 3931 0c3d 573f 0c3d 5890 3a3d
00000050: b0a2 8e3d 9a16 233d 67b3 983d fcc4 af3d
00000060: ab97 313d 8986 123d 47de ac3d 0bc7 203d
00000070: 4514 593d c7c8 b03c 84ad 253d 511e aa3d
00000080: 6b8f 563d 16f8 913c 696a 093d 2318 c13d
00000090: f016 893d c899 ec3c 5ea8 5a3d fd36 c53d
000000a0: 1743 173d 8050 2b3d 04a3 c53d 10fe 6c3d
000000b0: 749e 013d 7775 5d3d 9184 113d 1baa 823d
000000c0: 7739 4d3d 5e7b 893d 6655 6d3d a5d2 3b3d
000000d0: 95b0 a03d 385e 863d f1af d13c 130f b73d
000000e0: f160 493d 4ec0 993d 8384 db3c 42ae 223d
000000f0: bf3b 913d d9dc 4e3d ba5c 623d 6347 703d
00000100: 33cc 673d 56a6 323e 38f0 913d 27d6 4d3d
00000110: 1888 6c3d 343a 3f3d 9563 f73c 2a0d df3d
00000120: bd1d 413d 68db 7a3d e18e ea3d 49a6 403d
00000130: 47c0 bd3d 38f9 d53c d7bf 1f3d 2990 023d
00000140: 8983 613d 0c76 b73c 956d 193d 7780 483d
00000150: be1e 6b3d b098 1f3d 711d 473d d150 c13d
00000160: 99b4 593d a2ba 643d bf98 493d 41f3 783d
00000170: dd6f c43c c068 003e 221f 803d dbee 5e3d
00000180: 985e 943d 19cc 7a3d d58f 2c3d 0e45 003d
00000190: b7a9 053e d4c8 0b3d c8b2 333d 349d 033d
000001a0: 3e41 b83d 5fdb d43d 5941 7a3d cd2d 2d3d
000001b0: 937e 2e3d 6aaa fd3d 7805 e83d b81e 043d
000001c0: 86f0 af3d 1200 813d 1b9b bf3d d12b 0d3e
000001d0: c0a8 0d3d 7ee8 cc3c 4fbf eb3d f64b 563d
000001e0: c01e ce3d 9d61 8a3d bb31 8a3d 20d7 183d
000001f0: 87ca 813d aa3e 4f3d 7fa9 dc3d b68c 353d
0.045898605 0.033731554 0.038725045 0.059832916 0.03863951 0.015182534 0.04265737 0.061561577
0.07492024 0.08064356 0.045346256 0.0330489 0.053412993 0.10025876 0.04543366 0.116990626
0.047081213 0.03422663 0.034240093 0.045547813 0.06964624 0.039816476 0.07456093 0.08582494
0.043357532 0.035772834 0.084408335 0.039252322 0.052997846 0.021580113 0.04044868 0.08306564
0.052382868 0.017818492 0.033548746 0.09428432 0.06693828 0.028881922 0.053383224 0.09629629
0.036929216 0.041824818 0.096502334 0.05785948 0.031645253 0.0540671 0.035526816 0.06380101
0.05010363 0.067129835 0.05794277 0.045855183 0.0784618 0.065609396 0.02559659 0.08938422
0.049164716 0.07507382 0.026796585 0.039716966 0.07091474 0.050503585 0.055264212 0.05866183
0.056591224 0.17446265 0.07125896 0.05025306 0.057746977 0.046686366 0.030198852 0.10891183
0.0471475 0.0612444 0.11453033 0.047033582 0.092651896 0.026119813 0.039001312 0.031875763
0.055057082 0.022395156 0.03745802 0.04895064 0.057402365 0.038963974 0.048612062 0.09439243
0.053150747 0.05584205 0.049217936 0.06077886 0.023979122 0.12539959 0.06255938 0.05442701
0.07244605 0.0612298 0.042129356 0.031315856 0.13053022 0.03412707 0.04387167 0.032132342
0.08996819 0.10393404 0.061097477 0.042280007 0.04260118 0.123860195 0.11329168 0.03225586
0.08590798 0.062988415 0.09355756 0.13786246 0.03458476 0.025013205 0.115110986 0.052318536
0.10064459 0.067568995 0.067477666 0.037314534 0.06337457 0.05059687 0.10774516 0.044323646

bn2.weight f4 [64]
00000000: d148 623f 55a4 523f a168 5d3f dadb 8f3f
00000010: e5a8 783f 53a3 963f 1b52 5e3f 0e38 933f
00000020: 2641 613f 574f 7a3f b219 593f a0ff 653f
00000030: e5a0 973f fbc8 913f 896c 873f 43d7 923f
00000040: f851 913f 277d 8f3f aca7 8e3f e767 7d3f
00000050: bac8 513f 03eb 7a3f 566c 8e3f 2b6f 8e3f
00000060: ceb8 6a3f afce 913f c55b 963f 3092 933f
00000070: 6130 833f 41da a53f 1ae9 563f c1f1 8e3f
00000080: fea7 743f 41ce 593f cb2f a53f ca80 863f
00000090: 6db2 8f3f b6b1 813f b87e 8d3f 86dd 8d3f
000000a0: f755 4f3f b282 883f 408e 613f 33b4 5f3f
000000b0: 7db9 5a3f 249c 813f caac 8a3f fac3 933f
000000c0: e255 863f 960d 863f 9b37 993f 76e0 8f3f
000000d0: 9752 7a3f 44f3 6f3f e65f 953f 1aff 5e3f
000000e0: a477 5e3f 9f51 813f aafa 723f b223 893f
000000f0: 924c 6c3f ccfc 7b3f 23af 993f 2bb1 8b3f
0.8839236 0.82282 0.86487776 1.1238968 0.9713271 1.1768593 0.86844033 1.1501482
0.87990034 0.97777313 0.8480483 0.8984318 1.1845976 1.1389459 1.0579997 1.1471943
1.135314 1.1210068 1.1144919 0.9898667 0.8194691 0.9801485 1.1126812 1.1127676
0.9168824 1.13912 1.1746756 1.1528988 1.0249139 1.2957231 0.83949435 1.1167527
0.95568836 0.85080343 1.290521 1.0508053 1.1226326 1.0132358 1.1054296 1.1083229
0.80990547 1.0664885 0.8810768 0.8738434 0.8543928 1.0125775 1.0833981 1.1544182
1.0494959 1.0472896 1.1970094 1.1240375 0.9778227 0.9373057 1.1669891 0.87108004
0.8690131 1.0103034 0.94913733 1.0714018 0.9230434 0.9843261 1.2006572 1.0913442

bn2.bias f4 [64]
00000000: a946 29bd a54c 81bd e2eb 0cbe 8f5e ad3d
00000010: f4bd a9be 8c4e dabd b8d5 87be 1014 d3be
00000020: aa90 8cbe 37c6 17be 9a7f 21be b4f0 92be
00000030: a07b d8be 3a11 6bbe 65be bd3b dcfa 8dbe
00000040: 4b27 6abd 5060 8abb 364a 4cbe 47f8 a7be
00000050: 6bd2 fdbd 5074 0fbe 05cd 0fbe 6c92 1dbf
00000060: c49c 8dbe 8db8 14bd 7769 6c3b 6a8a 7abe
00000070: 6412 f5be bfad 1fbe a7d0 73be 4ae6 52be
00000080: 6f23 41be fa5f 71be 6263 bc3d 346c e33c
00000090: bd4f 92bd f865 b7be 1fb2 62bd d787 a6be
000000a0: fb42 f0bd 2f9b cfbe c6b0 c3be 11d6 8fbd
000000b0: 0340 5abe 0519 a4be 0a47 8ebe d247 e4be
000000c0: b365 e63d 1d52 2c3e 1c18 c6be 414f 31be
000000d0: 97fd 45be 2733 96be 8eb6 5c3c 0ae8 43be
000000e0: 18fb 7fbe 7c55 893c ff96 61be aeb4 d03d
000000f0: 86f3 04be 718b 91be cff4 f0bd fe9d 75be
-0.041327152 -0.06313447 -0.13761857 0.08465301 -0.33152735 -0.10659513 -0.26530242 -0.41226244
-0.2745412 -0.14821707 -0.15771332 -0.28699267 -0.42281818 -0.2295579 0.005790519 -0.27730453
-0.05716638 -0.004222907 -0.19950184 -0.32806608 -0.1239365 -0.14009213 -0.14043052 -0.6155155
-0.27658665 -0.036308814 0.0036073604 -0.24466863 -0.47865593 -0.15593623 -0.23810063 -0.20595661
-0.18861173 -0.23571768 0.09198643 0.027761556 -0.07144115 -0.35819983 -0.05534565 -0.32525513
-0.117315255 -0.40548083 -0.38220805 -0.07023252 -0.21313481 -0.32050338 -0.27788574 -0.44586045
0.11249866 0.16828199 -0.3869027 -0.17315389 -0.19335018 -0.293359 0.013471259 -0.19131485
-0.24998128 0.016764395 -0.22030257 0.10190712 -0.12983522 -0.28426698 -0.117654435 -0.2398605

bn2.running_mean f4 [64]
00000000: 80af 0fc0 650d 3bc0 fad2 4dc0 ed70 96bf
00000010: 1aea 25c0 5144 dcbe 9159 43c0 8ebe 75bf
00000020: 25fc 27c0 638c 31c0 0887 1fc0 4296 23c0
00000030: c03c 34c0 5587 babf bd5d cebf af1b 7bbf
00000040: 3c95 abbf 183b d4bf 1636 19bf 6076 3cc0
00000050: fe7f 1cc0 5c98 84bf 77d0 a0bf 283a babf
00000060: 2d74 fcbf 6bef 57bf e413 8fbf ca49 96bf
00000070: 3979 4ebf c343 0fc0 fc24 28c0 5a28 a7bf
00000080: f4c5 53c0 ecfb 42c0 fbe1 373f cfbb 06c0
00000090: 6cec c4bf 6e91 13c0 4867 7ebf b050 f7bf
000000a0: bbfb 33c0 dc4a 9dbf fb51 4ec0 217f 2ac0
000000b0: eb03 20c0 0ddb cabf ff6b 22c0 794b c3be
000000c0: d8fb bcbf d765 e5be 30d3 7fbf 875f 04bf
000000d0: bd1e 14c0 ba3f 25c0 ea7e 68bc db1a 10c0
000000e0: 8721 39c0 dee4 8bbf d2c6 f1bf 4b26 42be
000000f0: e219 18c0 7313 10c0 e794 72bf 8516 d3bf
-2.2450867 -2.9226925 -3.216002 -1.1753212 -2.5924134 -0.4302087 -3.0523417 -0.9599389
-2.6247647 -2.7741935 -2.4926167 -2.556046 -2.816208 -1.457255 -1.6122357 -0.98089117
-1.3404918 -1.6580534 -0.59848154 -2.944725 -2.445312 -1.0358996 -1.2563618 -1.4548998
-1.9722954 -0.843497 -1.1177945 -1.1741269 -0.8065372 -2.2385108 -2.6272573 -1.3059189
-3.308957 -3.046626 0.71829194 -2.105213 -1.538465 -2.3057513 -0.99376345 -1.9321499
-2.8122394 -1.228847 -3.2237537 -2.6640093 -2.5002391 -1.5848099 -2.5378416 -0.3814352
-1.4764357 -0.4480426 -0.9993162 -0.51708263 -2.314376 -2.5820146 -0.014190415 -2.2516391
-2.8926713 -1.092922 -1.88888 -0.1895992 -2.3765798 -2.251187 -0.94758457 -1.6491247

bn2.running_var f4 [64]
00000000: 6abd aa40 b8b6 b740 7426 fa40 aded 8040
00000010: 6820 8840 7b2d b840 8ca7 9740 9e73 8540
00000020: 984a b940 48d3 d540 baaf a240 1d71 b840
00000030: 9eb6 a140 5f3c 9b40 aa76 d940 f160 7c40
00000040: 9e3b d040 531f a040 8532 8940 62ff ff3f
00000050: 23c2 cc40 5913 8d40 7c36 d940 e3c2 5e40
00000060: 0e02 4640 ba4c d740 d847 a840 0d26 2640
00000070: a918 5540 1448 3740 6dd6 8e40 315d 7840
00000080: 4782 a340 22f3 c540 3840 bf40 254e b040
00000090: e4d0 bf40 4f11 6740 f81e c940 9347 c640
000000a0: 3080 be40 87e1 8640 e102 3a40 b51f c340
000000b0: f646 a040 7fab 5040 ed6c 8340 059a 6140
000000c0: b76b d140 5a9e cd40 46ab 9c40 411c 5040
000000d0: 72e9 2a40 5238 b940 7985 b940 fafc ce40
000000e0: 64f0 aa40 4ebb bf40 b55e af40 3fcb c740
000000f0: f4c2 e440 8669 7240 7e8b 7c40 b2d1 3940
5.335622 5.7410545 7.817194 4.029013 4.253956 5.755552 4.7392025 4.1703634
5.7903557 6.682041 5.083951 5.763808 5.053542 4.8511195 6.7957354 3.9434168
6.5072775 5.0038238 4.287417 1.9999812 6.3986983 4.408612 6.787901 3.480645
3.0938754 6.728116 5.25877 2.5960724 3.3296301 2.8637743 4.463675 3.880688
5.109653 6.1859293 5.976589 5.509539 5.9942493 3.6104314 6.2850304 6.196237
5.953148 4.21503 2.9064257 6.0976205 5.008662 3.2604673 4.1070466 3.5250256
6.544399 6.42558 4.8959074 3.2517245 2.6704984 5.788125 5.797543 6.468381
5.3418446 5.9916143 5.480311 6.2435603 7.148798 3.7876906 3.946014 2.9034238

bn3.weight f4 [32]
00000000: 2af0 8940 8d63 7f40 0863 7640 d0f8 8440
00000010: 5eab 6e40 0053 8740 c4f3 7e40 1de2 7b40
00000020: 671d 8940 739c 8840 88af 8540 1bec 8340
00000030: bb05 8840 85dd 8540 6e0d 8a40 a5f5 7340
00000040: ac9f 7040 4891 8240 ba5a 8440 92d5 7340
00000050: 6925 8d40 4da9 7240 27a2 7040 a72c 7640
00000060: 0b16 7340 9965 6d40 6c72 7f40 b6c9 7040
00000070: 1eee 7640 521b 8640 2810 8040 76d0 7b40
4.310567 3.990451 3.8497944 4.1553726 3.7292094 4.228882 3.9836283 3.9356759
4.284839 4.269098 4.177677 4.1225715 4.2506995 4.183291 4.3141394 3.811868
3.7597456 4.0802345 4.136075 3.8099103 4.4108167 3.7915833 3.759897 3.8464754
3.7982204 3.709326 3.9913588 3.7623115 3.8582835 4.190835 4.001972 3.9345984

bn3.bias f4 [32]
00000000: 84b4 6340 da7a 5540 0eb9 6140 93b3 5e40
00000010: 6dd0 6140 edd1 5540 2bf2 5c40 3e82 5940
00000020: cca7 5540 c174 5840 0cbc 5a40 87ae 4f40
00000030: 230f 6240 4943 6240 6b21 6240 edbe 6240
00000040: de22 5a40 ca5e 5640 ebd6 5140 827b 5d40
00000050: 4d20 6740 b832 6040 517c 5f40 85af 5d40
00000060: 2735 5f40 64ab 5640 3e42 5940 b2b4 5d40
00000070: 79ca 5440 f12d 5940 8f23 5940 4919 6340
3.5578928 3.3356233 3.5269198 3.4797103 3.5283463 3.3409379 3.4522808 3.3985744
3.3383665 3.382126 3.4177275 3.2450273 3.5321739 3.5353568 3.5332897 3.5429032
3.4083781 3.3495355 3.2787426 3.4606633 3.6113465 3.5030956 3.4919627 3.4638379
3.4876192 3.3542109 3.394668 3.4641538 3.324858 3.393429 3.3927953 3.5484183

bn3.running_mean f4 [32]
00000000: 57a2 bc3e a52c 1fbf 879b 9fbf 3c53 a1be
00000010: 08dc 10c0 9c90 84be a42f 7ebf 276e e7be
00000020: fe23 adbe 92dd 0ebe b9e3 f43d 6b6d 12bf
00000030: c9c2 f43d 53f1 9e3d 2b7d 0dbe 996e 87bf
00000040: 78b5 0fc0 7892 32be 289f 1cbe d904 1ec0
00000050: 62eb 6f3c 488d f3bf 64f7 08c0 810a f8bf
00000060: 5c90 f7bf 5bde ffbf 5020 45be dca8 debf
00000070: 6821 12bf 3043 18bf 6b13 96be 8188 48bf
0.36842605 -0.621775 -1.2469338 -0.31508815 -2.2634296 -0.25891578 -0.99291444 -0.45201227
-0.33816522 -0.1395171 0.11957497 -0.5719821 0.11951215 0.07760873 -0.13817279 -1.0580627
-2.245451 -0.17438686 -0.15295088 -2.4690459 0.014643522 -1.9027491 -2.1400995 -1.9378206
-1.934093 -1.9989733 -0.19250607 -1.7395282 -0.57082224 -0.5947752 -0.2931169 -0.7833329

bn3.running_var f4 [32]
00000000: 933f d040 91cd cf40 239d b740 2e36 b540
00000010: 65a9 b140 e22c b940 96f6 d740 6ff3 d240
00000020: 12c0 c340 19f8 e240 d780 ec40 23cd d540
00000030: f9f0 d640 fa09 9e40 0cb3 d040 13b9 d540
00000040: 6e23 a240 0e04 d740 136c cd40 2ea3 af40
00000050: d1a8 c640 2203 7540 2c9d b840 0770 8d40
00000060: 4977 8f40 30a1 8a40 d7e5 b640 cd3e 6f40
00000070: 365a bf40 8b2b c640 e222 e840 4021 cd40
6.5077605 6.4938436 5.7379317 5.6628637 5.551928 5.786729 6.748851 6.592216
6.117196 7.0927854 7.3907275 6.681291 6.7169156 4.938718 6.5218563 6.678842
5.066825 6.719245 6.4194427 5.4886694 6.2081075 3.8283162 5.769186 4.419925
4.483311 4.332176 5.7155566 3.738208 5.979762 6.1928153 7.254258 6.410309
